housing-prices-predictions-neural-networks/models/housing_predict_model.pth (torch, 22824 bytes, 7 tensors)

layer_stack.0.weight f4 [16, 264]
000000 74 6f 13 c1 a5 1c 06 c1 b6 64 0d 40 68 43 a7 40
       -9.21471 -8.381993 2.209272 5.2269783
000010 4b fb 40 40 55 3f c6 bf 3e 1e 1c 3f f5 20 93 be
       3.0153377 -1.5488077 0.60983646 -0.28736082
000020 0e a5 ab 3f 0f 10 37 40 a5 b0 aa c0 e9 40 65 bf
       1.3409746 2.8603551 -5.334063 -0.8955217
000030 bb 1a 69 40 0c 47 97 40 99 d3 8b 40 26 f8 86 40
       3.6422565 4.7274227 4.36958 4.2177916
000040 f1 c9 48 40 0c 80 95 be f4 a1 5a 40 b9 7d 28 3e
       3.1373255 -0.29199255 3.4161348 0.1645421
000050 c5 05 c5 c0 42 b6 c6 40 97 79 07 40 8f c7 35 3f
       -6.1569543 6.2097483 2.1167963 0.7100763
000060 2d 01 aa bf 46 fd 6f 40 81 9e c7 3d 80 99 f2 3f
       -1.3281609 3.7498336 0.09747029 1.8953094
000070 bb 0a f4 c0 d9 6b fc 3f 7c d3 0d 3f 88 41 a2 bf
       -7.62631 1.9720412 0.55400825 -1.2676249
000080 3e 5c d2 40 d4 49 61 bf 66 1f 39 c0 f5 b9 d8 bf
       6.57376 -0.8800328 -2.8925414 -1.693175
000090 df 4b 98 c0 4e 84 1f c0 5e 6b df 3e 90 92 aa be
       -4.7592616 -2.4924502 0.43636602 -0.33314943
0000a0 47 a6 84 bf 77 31 c8 c0 c4 32 de be e4 38 22 be
       -1.0363244 -6.256038 -0.43398106 -0.15842015
0000b0 2d c7 aa be 83 4e ac c1 c3 cf aa 3e 7c d9 52 c1
       -0.33355084 -21.538336 0.33361635 -13.178097
0000c0 12 46 a5 40 90 75 f3 bf 9c 93 b5 3d 1f ff 00 bf
       5.1648035 -1.9020252 0.08866045 -0.50389284
0000d0 0e 28 23 c1 ff 50 47 c0 31 b9 aa 40 09 9f 1c c0
       -10.197279 -3.1143186 5.3351064 -2.4472067
0000e0 09 03 89 c1 10 e1 36 be e2 d1 1d bf a6 e2 98 40
       -17.126482 -0.17859292 -0.6164838 4.777667
0000f0 d7 ae f1 c0 90 a5 02 c0 c9 01 fe bf ea 36 8d bf
       -7.5525928 -2.0413551 -1.9844295 -1.1032383
000100 ee 99 4c c0 38 42 62 3f 88 0a 29 3f 9e 69 74 40
       -3.1968951 0.8838229 0.66031694 3.8189464
000110 79 50 23 c1 48 74 ad c0 79 9b 9c bf dd b7 27 c0
       -10.207147 -5.4204445 -1.2234946 -2.6205971
000120 e7 ea b2 c0 49 2b 86 c0 05 5c 42 40 f5 bb f2 bf
       -5.5911746 -4.192784 3.0368664 -1.896361
000130 9d 69 72 41 dd 17 1d 41 f8 ae d1 bf 90 28 bd 3e
       15.1507845 9.818326 -1.6381521 0.3694501
000140 f6 b6 c9 be 22 cb f3 3f 65 bc 9a c0 ab 31 5b 41
       -0.393974 1.9046366 -4.8354974 13.699626
000150 bd c7 7b 40 4b f0 72 40 c6 fb 6c c0 eb 6f 06 c1
       3.934066 3.7959163 -3.702867 -8.402324
000160 9f 87 38 3f 43 41 71 c0 7f 34 59 c1 31 f9 b1 c0
       0.7208194 -3.7696083 -13.575316 -5.561669
000170 3e 07 35 40 09 78 4d 3f 11 fe cb c0 f5 49 8c c0
       2.828567 0.80261284 -6.374764 -4.384028
000180 33 1c 83 41 b9 ad 8b be 78 b9 3b 41 03 ac a4 c1
       16.38877 -0.27280977 11.73278 -20.58399
000190 86 2c 42 c1 86 9f eb 3f 24 7a 6f 40 c5 4c 9e be
       -12.13587 1.8408058 3.7418299 -0.30917946
0001a0 d8 be 79 40 16 fc 48 c0 76 82 a2 bf 8d e7 30 c0
       3.9022732 -3.140386 -1.2696064 -2.7641327
0001b0 60 ee 1d c0 60 93 f8 3f 52 52 c3 3f 8f 3d 19 c1
       -2.4676743 1.9419975 1.5259497 -9.577529
0001c0 01 f9 14 c1 1e 07 44 c0 d5 cb 23 c0 61 89 77 40
       -9.310792 -3.0629344 -2.559316 3.86776
0001d0 ec 61 47 40 5a f5 b9 bf 74 b4 1a 40 30 4d 11 40
       3.1153517 -1.4528 2.417264 2.2703362
0001e0 de 55 35 41 e1 a1 3f 41 14 9e e0 c1 27 15 03 3e
       11.333464 11.977021 -28.077187 0.12801038
0001f0 ba db 15 41 08 ed 33 40 a3 2b 6b 3f 99 f7 27 41
       9.366144 2.8113422 0.9186346 10.497949
000200 bb 58 37 41 1f fd 9b c0 1a 1b e3 bf cb 53 73 40
       11.459163 -4.8746486 -1.7742646 3.8019893
000210 ee 4a 9e 40 10 f9 bf 3e a5 cc 99 3f 07 0d ac bf
       4.9466467 0.37494707 1.2015578 -1.3441476
000220 4f 91 b3 c1 79 61 c2 be b7 6b 36 3f 79 13 47 c0
       -22.445951 -0.3796499 0.7125811 -3.1105635
000230 c0 72 31 c1 1b 3e 70 bf 1b 8f ea 3f 27 15 ae c0
       -11.090515 -0.93844765 1.8324922 -5.440082
000240 06 26 c4 c0 3b 40 84 c0 77 2e 0e c0 89 f7 55 40
       -6.1296415 -4.1328406 -2.221586 3.3432333
000250 15 de c6 3e 77 a1 e5 3f 76 dc fa be fe d1 c0 41
       0.3884131 1.79399 -0.48996323 24.102535
000260 fa 0c 2d bf 21 32 4b c1 da 67 38 bf 88 dd c3 c0
       -0.67597926 -12.6997385 -0.72033465 -6.1207924
000270 73 c8 4f c1 7f 38 28 bf 43 e4 8e 3f a7 88 bb c0
       -12.986438 -0.65711206 1.116341 -5.860431
000280 7e 87 34 40 8b 29 0d 41 a3 ef 60 be 41 b2 8a bf
       2.8207698 8.822642 -0.21966414 -1.0835649
000290 d8 d9 b5 3f 40 d5 4c 3c 16 12 3c 40 2b fb 03 c0
       1.4207106 0.012502015 2.9386039 -2.062205
0002a0 c3 a4 68 bf 50 ca 3b c0 84 56 bd be b9 77 f8 be
       -0.90876406 -2.9342232 -0.3698007 -0.4852884
0002b0 d8 d7 06 c0 be a5 79 41 e7 d5 52 41 63 10 09 41
       -2.106924 15.602964 13.177222 8.566501
0002c0 89 dd 82 40 e2 a6 e3 bf 9a cc db bf 95 30 5b 40
       4.089543 -1.7785304 -1.7171814 3.4248402
0002d0 3b ed a4 c0 bc 29 0b 40 e3 dd c7 be 65 b5 e9 3f
       -5.153959 2.1744223 -0.39036474 1.8258482
0002e0 71 d0 f3 40 76 af 6f bf aa 84 07 c0 97 7a 63 be
       7.6191945 -0.9362711 -2.1174722 -0.22214733
0002f0 01 d0 87 be ee 46 80 be bb 6e 0c c0 be ef 19 bf
       -0.26525882 -0.25054115 -2.1942585 -0.6013144
000300 66 5e 12 bf 1b 03 84 3f 71 7b 4f c0 22 83 23 c0
       -0.5717529 1.0313448 -3.2419093 -2.5548787
000310 40 b9 00 c0 9c 39 8e 3f 88 4b e4 be 06 9a e7 bf
       -2.0113068 1.1111331 -0.44588876 -1.8093879
000320 c6 ee 23 bf 2c b8 e6 40 a9 83 9d bf 26 c7 ea c0
       -0.64036214 7.209982 -1.2305804 -7.33681
000330 9f 46 1c 40 7f 8f c7 be 36 d3 70 c0 31 d6 06 c0
       2.4418104 -0.38976666 -3.7628913 -2.1068232
000340 5c 82 11 c0 e0 6f f4 3e 52 8f 7c bf f3 7d e5 be
       -2.2735815 0.47741604 -0.9865619 -0.44822654
000350 f9 ea 6e bf c0 40 99 c0 07 21 1b c0 99 80 ae be
       -0.9332729 -4.789154 -2.4238908 -0.34082487
000360 ab dc e8 40 cd 6e 09 40 42 22 e0 bf 84 62 82 bf
       7.276937 2.1473877 -1.7510455 -1.0186315
000370 39 02 4e 40 dd e7 24 c0 48 dd bf c0 ea dd 1f 40
       3.2188857 -2.5766518 -5.995762 2.4979196
000380 bc b4 74 bf 72 64 57 c1 4a d6 c3 be 31 60 84 c0
       -0.9558828 -13.462023 -0.38249427 -4.136742
000390 4b 7e 35 bf f3 05 12 c1 e8 3a c2 3f b2 e9 17 40
       -0.7089583 -9.126452 1.5174227 2.3736386
0003a0 fa cd 7b 3c c9 ca e4 be 65 da 9d bf 08 48 c5 3c
       0.015368933 -0.44685963 -1.2332274 0.024082199
0003b0 51 44 a8 41 84 ab 19 c0 0f a4 f8 3e 5b 60 84 c0
       21.033358 -2.4010935 0.48562667 -4.136762
0003c0 ad 91 0c bf fa a7 2b c1 d2 60 eb bf bb ba fd c0
       -0.54909784 -10.72851 -1.8388922 -7.9290442
0003d0 19 60 b3 bf 74 5b d6 be dc 8d 1c 40 52 a7 1f c0
       -1.4013702 -0.41866648 2.4461584 -2.4945874
0003e0 aa 03 25 bf 3b d1 e9 bf ae e5 67 41 54 01 5d 41
       -0.64458716 -1.8266977 14.493574 13.812824
0003f0 56 19 0f 41 ca 38 a1 40 85 76 92 c0 bc 48 9e 40
       8.943686 5.0381823 -4.5769677 4.9463787

layer_stack.0.bias f4 [16]
000000 d1 81 09 bf b9 1a 8c 3f 05 ce 3e 3f af d7 99 3f
       -0.5371371 1.0945655 0.7453311 1.2018946
000010 9d aa ad 3f 09 76 99 be 95 c3 b7 3f 3c ca 80 3f
       1.3567692 -0.29972866 1.4356562 1.0061717
000020 3a b8 9a be e8 a1 c5 bd 27 ea 73 be 14 3b 22 3f
       -0.3021868 -0.09650022 -0.23819791 0.63371396
000030 ed 49 ab 3f 7f c1 83 be e7 75 b6 3f ad 67 a3 3f
       1.3381935 -0.25733563 1.4254731 1.2766014

layer_stack.2.weight f4 [16, 16]
000000 29 bb 70 40 6d 9e c8 3f 69 26 b4 3f 6e 0a db 3f
       3.7614233 1.5673348 1.4074222 1.7112558
000010 b8 b4 d3 3f bb ab f1 be 6a 41 eb 3f f9 20 b6 3f
       1.6539526 -0.47201332 1.8379338 1.4228812
000020 b1 aa 92 3c 4d bc 07 40 e8 bb 67 3b b4 0d c2 3f
       0.017903658 2.120868 0.0035359804 1.5160432
000030 1c 41 cb 3f 2c 16 14 be 87 88 cd 3f 3e d9 bc 3f
       1.5879245 -0.14461583 1.605729 1.4753797
000040 cc 88 02 be 11 60 a2 bd 10 9f 87 be 8d c8 06 3d
       -0.12747496 -0.079284795 -0.26488543 0.032906104
000050 17 96 9e be ce b8 b9 be e6 48 82 bd f8 f4 92 bd
       -0.30973884 -0.36273807 -0.063615605 -0.0717563
000060 7d b3 ad be ed 70 6f bd f7 7c e6 be eb 08 72 be
       -0.33926 -0.058457304 -0.45017216 -0.23636214
000070 91 cb df be 07 ca 17 be 73 96 b1 bd f2 21 57 be
       -0.43709996 -0.14823161 -0.08671274 -0.21009043
000080 57 a5 64 40 bb 90 c1 3f 14 c7 d5 3f 20 7c c5 3f
       3.5725915 1.5122293 1.6701379 1.5428505
000090 ce cf fa 3f 97 4d db 3d 81 a5 e7 3f 18 04 f5 3f
       1.9594667 0.107081585 1.8097383 1.9141874
0000a0 99 e4 d3 3e 5c af 0d 40 a1 c8 58 3e 07 b2 d1 3f
       0.41385344 2.213828 0.21170284 1.6382455
0000b0 12 1e f1 3f 40 df 5d 3e a8 d6 da 3f a2 d2 f9 3f
       1.8837302 0.21667194 1.7096758 1.9517405
0000c0 6e 48 4c 40 db ef ca 3f 7e 02 d4 3f 13 65 e5 3f
       3.1919208 1.5854448 1.656326 1.792147
0000d0 7c 5e c5 3f 2d 7a 42 3e 59 94 c6 3f 03 f6 ba 3f
       1.5419459 0.18991919 1.5514022 1.4606327
0000e0 b9 4d 67 3e 1b bb 1e 40 36 a8 c8 3b 4e b8 bb 3f
       0.22588243 2.48017 0.006123568 1.466562
0000f0 21 7d d3 3f 63 b8 7b 3e 2b 31 c1 3f 7c f1 c2 3f
       1.6522561 0.24582057 1.509313 1.5229945
000100 6b 9c 5f 40 3a ee ec 3f 0a b5 e8 3f ec 31 c0 3f
       3.493922 1.8510201 1.8180249 1.5015235
000110 66 04 e1 3f 0c 5e 9e 3d ba fc d3 3f 8e e7 d3 3f
       1.7579467 0.07732782 1.6561501 1.655504
000120 16 36 0b 3e 4a 1f 24 40 8d 13 fe 28 2b 2d d7 3f
       0.13594851 2.5644097 2.8208144e-14 1.6810659
000130 68 d1 cc 3f 3e eb c7 bb dd 10 dd 3f 4e 17 c3 3f
       1.6001406 -0.006101041 1.7270771 1.5241487
000140 8e ad 12 be ad 47 7b be dc ea 39 bc 34 2e d1 bd
       -0.14324018 -0.24539061 -0.011347499 -0.10213891
000150 3e b1 c5 be bd 3d 8e bc e7 cf 91 be 21 15 98 be
       -0.38611788 -0.017363423 -0.2847893 -0.2970362
000160 65 66 29 be d7 9f 05 3c f7 b8 28 be 9f 50 f6 be
       -0.16542967 0.008155785 -0.16476808 -0.48108384
000170 7a cb a3 be 09 30 f3 bb b5 10 a8 be 27 71 b8 be
       -0.31991178 -0.0074214977 -0.32825246 -0.36023828
000180 bb f9 e0 be 5f 62 c2 be 48 bf c0 be 08 f6 39 be
       -0.4394053 -0.37965676 -0.37645936 -0.1816026
000190 f6 a5 12 be 6f 25 d5 ba 04 58 ac bd dd ae 72 be
       -0.14321122 -0.0016261766 -0.08415225 -0.23699518
0001a0 26 d8 d7 bd 1b 49 c7 bd 73 60 e9 be fd 94 e9 bd
       -0.10539274 -0.09730741 -0.45581397 -0.114053704
0001b0 fb c2 d2 be 9a 24 41 bd 4c b0 b3 be 94 3d 41 be
       -0.41164383 -0.047154047 -0.3509544 -0.18871146
0001c0 1d 91 87 be d7 68 52 be 12 e4 49 be f7 31 c0 be
       -0.264779 -0.20547806 -0.19715908 -0.3753812
0001d0 f6 fc 6e be 29 6d ba bd 0d c5 da be 32 df cb be
       -0.23338684 -0.09102852 -0.42728463 -0.39818722
0001e0 0e a6 d0 be 3b 27 af be 6d 57 8a be 9a f3 61 be
       -0.4075169 -0.34209618 -0.27019826 -0.22065583
0001f0 53 62 92 be 77 1e 99 be 21 21 3c be 80 a1 95 be
       -0.2859064 -0.29906055 -0.18372013 -0.29224777
000200 fc 3f 15 3d 64 62 5b 3c e2 3c 7a be f4 9b 01 3e
       0.036437973 0.013390157 -0.24437287 0.12657148
000210 a8 3e b3 be f9 a6 33 be ea f8 bf be be e7 0d be
       -0.3500874 -0.17544164 -0.37494594 -0.13857934
000220 8f ee 81 bd b4 d8 58 a3 de be b0 3d 47 56 7e be
       -0.063443296 -1.1755272e-17 0.08630155 -0.248376
000230 ee 9b 19 be f6 2b 25 be 6d ce ac be 99 63 a6 bd
       -0.15000889 -0.16130051 -0.3375124 -0.081244655
000240 05 b1 5e 40 e1 c1 9f 3f e3 bc dc 3f b5 cc be 3f
       3.4795544 1.2481042 1.7245144 1.4906222
000250 9c 87 bd 3f 48 01 c2 3e 12 91 bc 3f ef cd bc 3f
       1.480701 0.37891603 1.4731772 1.4750346
000260 ef f2 d0 3e 65 99 09 40 8c 02 1e 3e cc 53 df 3f
       0.40810344 2.1499875 0.15430659 1.7447448
000270 84 d7 e2 3f c6 20 f7 3e 6f 52 bb 3f 40 15 d4 3f
       1.772202 0.48267192 1.4634532 1.6568985
000280 e2 91 5d 40 e5 f5 d8 3f 65 44 db 3f 3c 1c e2 3f
       3.462029 1.6950041 1.7130247 1.7664866
000290 d6 f6 c6 3f 93 54 97 3e 43 16 ec 3f 75 92 f4 3f
       1.5544078 0.29556713 1.8444294 1.9107195
0002a0 5d 82 91 3e 6e fd 28 40 49 98 83 3b 7e ed d2 3f
       0.28419772 2.6404681 0.0040159565 1.6478727
0002b0 22 3b e8 3f 2c aa 9b 3e e6 b4 eb 3f fe 75 c7 3f
       1.8143046 0.30403268 1.8414581 1.5582883
0002c0 c6 c5 2a be fb 46 fc be 21 7f ce be 6d e2 81 be
       -0.16677007 -0.49272904 -0.40331367 -0.25368062
0002d0 bc cf f7 be 6e 1f f2 be 0c 50 ec be d5 75 20 bd
       -0.48400676 -0.47289604 -0.4615482 -0.039174873
0002e0 bb 8d 3d be 45 00 a3 be 2b 4d 7f be e9 c8 e7 be
       -0.18511097 -0.31836143 -0.24931781 -0.4527047
0002f0 48 77 11 bf 5e 7f d2 be 66 70 01 bf ff 89 03 be
       -0.56822634 -0.41112798 -0.5056213 -0.1284561
000300 68 63 67 40 14 2d d4 3f e2 7a cf 3f 71 4a dc 3f
       3.6154423 1.6576257 1.6209376 1.7210218
000310 fb f1 d4 3f 0e b3 a0 3d 73 8b ed 3f fb ed f5 3f
       1.6636347 0.07846652 1.8558182 1.9213251
000320 4b b9 12 3e e7 ff 24 40 c7 fe 47 3e fd a6 e0 3f
       0.14328496 2.578119 0.19530784 1.7550961
000330 18 85 e7 3f db a2 41 3e ad 20 f5 3f 01 6d ee 3f
       1.8087492 0.1890978 1.9150597 1.8627015
000340 54 88 cd be f5 d0 c8 be f2 3c f7 be 03 d3 23 be
       -0.40143073 -0.39221922 -0.48288685 -0.15998463
000350 da 3a db be 68 f8 e5 be e7 f3 cc be 7f 6c f9 be
       -0.42818338 -0.4491608 -0.40029833 -0.48715588
000360 3c 23 e3 be 9e 1f 8d bc c8 f5 cd bd a8 40 99 bc
       -0.4436282 -0.01722699 -0.10056645 -0.018707588
000370 00 02 b9 be 81 66 af be 31 e1 a7 be 9c d7 70 be
       -0.36134338 -0.34257892 -0.32788995 -0.23519748
000380 51 8d 64 40 27 a5 df 3f f3 a6 d4 3f 0b 13 da 3f
       3.5711253 1.7472275 1.6613449 1.7037061
000390 63 f4 f5 3f c1 02 90 3e 6a df ee 3f 6c 2e c0 3f
       1.9215206 0.281271 1.866193 1.5014167
0003a0 ee c0 94 3e f0 ee 10 40 3a 15 59 3e 84 1b d2 3f
       0.29053444 2.2645836 0.21199504 1.6414647
0003b0 7b 1f c6 3f 8b bf 92 ba 40 4a cc 3f 9d 84 dd 3f
       1.5478357 -0.0011196 1.5960159 1.7306095
0003c0 1a 9e 68 40 de cd bf 3f f2 94 ff 3f 87 34 f0 3f
       3.6346498 1.4984701 1.996733 1.876603
0003d0 cd b5 c7 3f db 81 8e 3e de cd ef 3f da ff be 3f
       1.5602356 0.27833447 1.8734701 1.492183
0003e0 6c c8 05 3e 26 3b 24 40 21 a0 70 3e e1 4c eb 3f
       0.13064736 2.5661101 0.23498584 1.8382837
0003f0 f3 ae cd 3f 6c 67 91 3e 35 98 f0 3f ac e8 d3 3f
       1.6069015 0.28399217 1.879645 1.6555381

layer_stack.2.bias f4 [16]
000000 31 3e b0 3f 6e 8a 03 bf b1 f4 ca 3f b3 64 cc 3f
       1.3768979 -0.513831 1.5855924 1.5968231
000010 a2 f7 a2 3f 52 df 84 be b4 b8 6e bd 89 3d b9 be
       1.2731822 -0.2595163 -0.058281615 -0.3617976
000020 6e 10 a2 be 35 79 b0 3f 0a 02 c3 3f 59 09 5c be
       -0.3165316 1.378699 1.5234997 -0.21487941
000030 ea 94 ac 3f 23 27 14 be c9 4e c2 3f 70 5a c9 3f
       1.3482945 -0.14468054 1.5180293 1.5730724

layer_stack.4.weight f4 [16, 16]
000000 e5 94 83 be 83 29 c8 bd dd 65 ca be bc 68 ef be
       -0.25699535 -0.09773543 -0.3953084 -0.46759593
000010 83 ea ba a3 ef 7f d8 be 28 49 b9 be 74 d4 2d bd
       -2.026548e-17 -0.42285106 -0.36188626 -0.04243894
000020 f3 03 c6 a3 ba 34 c5 be 81 d2 e0 be 05 0c b6 be
       -2.1468876e-17 -0.3851679 -0.43910602 -0.35556045
000030 ac c4 78 be eb d6 c8 be b1 2e 6b be 60 db 1e be
       -0.24293774 -0.3922647 -0.2296703 -0.15513372
000040 31 51 95 be a8 4c 36 be 4f 98 64 be c2 09 32 bd
       -0.29163507 -0.1780268 -0.22323726 -0.043466337
000050 33 f6 8e be 24 a9 c0 bc 7b 1a 5a bd 72 69 5f be
       -0.2792221 -0.023518153 -0.05324791 -0.21817568
000060 53 24 c3 bd 9f c3 e1 be a7 8f e7 be 7c f5 5b be
       -0.09528413 -0.4409456 -0.45226786 -0.21480364
000070 7a 7c 30 be 00 46 6f bc c5 3f 97 be d5 47 a8 be
       -0.17234984 -0.014604092 -0.2954084 -0.32867303
000080 9f c4 02 40 36 da 41 3e 09 2c 09 40 f9 e8 e0 3f
       2.0432508 0.18930897 2.1433127 1.7571098
000090 8d e0 e6 3f ad bd 17 3e 9a 91 95 3e a1 d0 28 3d
       1.8037277 0.1481845 0.29212648 0.04121459
0000a0 2f e8 ad 3b 73 de 03 40 fb 6d f9 3f 26 c0 da 3e
       0.0053072195 2.0604522 1.9486688 0.42724723
0000b0 b5 a1 ea 3f 8d bd 7d 23 06 14 dd 3f cb d5 e1 3f
       1.8330599 1.37552964e-17 1.7271736 1.764337
0000c0 6c f6 d5 3f f2 f1 ec a2 d5 1b f1 3f 16 60 da 3f
       1.6715827 -6.4224098e-18 1.8836619 1.7060573
0000d0 69 4c 01 40 d8 b8 18 23 a3 c9 42 3d b4 e2 b5 21
       2.0202887 8.279079e-18 0.047555577 1.2325045e-18
0000e0 7f fd 84 a3 26 d5 d8 3f f0 d2 fe 3f 45 4f 68 23
       -1.4418828e-17 1.6940048 1.9908123 1.2593531e-17
0000f0 af 4a f7 3f 94 9d 41 a2 d9 44 fc 3f d7 e9 d7 3f
       1.9319667 -2.6239799e-18 1.9708511 1.6868237
000100 d9 ce e8 3f 3b 4c 05 23 28 be e0 3f 17 67 df 3f
       1.8188125 7.226087e-18 1.7558031 1.7453336
000110 0f e3 e7 3f 39 67 ae 21 66 46 93 a3 de c9 06 22
       1.8116168 1.1818021e-18 -1.5967587e-17 1.8267254e-18
000120 65 09 e9 22 3b 7f e0 3f cd ae e2 3f 96 2a 1f 21
       6.3164723e-18 1.7538828 1.7709595 5.392766e-19
000130 f3 17 ee 3f 41 13 20 21 df 30 fc 3f e3 0e eb 3f
       1.8601059 5.423559e-19 1.9702414 1.8363918
000140 f3 11 e6 be 28 d4 a4 be e5 67 94 be 4b 88 ef be
       -0.4493557 -0.32193112 -0.28985515 -0.4678367
000150 05 9a 17 be 3b 22 b4 bc f6 ac ed bd 79 f4 79 be
       -0.14804848 -0.021988979 -0.11605255 -0.24409665
000160 90 c0 82 be b5 dd b6 be eb 11 89 be 49 d5 aa bc
       -0.2553754 -0.35716024 -0.26771483 -0.020853655
000170 ff 3c bc be f1 fb 4c be 8f c9 d6 be de d7 9d be
       -0.36765286 -0.20017983 -0.41950652 -0.30828756
000180 5d b0 f2 3f 4a 50 a1 3d 0f d1 fe 3f 12 11 d8 3f
       1.8960072 0.07876642 1.990755 1.688021
000190 70 83 e4 3f 93 94 d3 3e 1e 5b f3 3e 2b b5 8b 3e
       1.7852612 0.4132429 0.47530454 0.27286658
0001a0 ff a0 58 3d b7 fb d7 3f b2 5e ec 3f 0c f4 48 3e
       0.052887913 1.6873692 1.8466399 0.19624346
0001b0 8d 51 08 40 7b 67 7d 3d 97 fa 03 40 37 60 fb 3f
       2.1299775 0.061866265 2.0621698 1.9638737
0001c0 07 7c 97 be 9d b0 6e bd 32 b4 45 be d6 86 64 be
       -0.29586813 -0.0582739 -0.1930702 -0.22317061
0001d0 18 17 c4 be b6 6b 16 23 55 5b 05 be f5 7c 38 bd
       -0.3829887 8.154325e-18 -0.13023122 -0.045041043
0001e0 12 f2 a9 22 52 2a ae be 71 b2 04 bf 4e df d6 bd
       4.6063844e-18 -0.34016663 -0.5183478 -0.10491811
0001f0 88 09 ae bd 88 ad a6 a3 b6 84 cc be 24 66 36 be
       -0.08497912 -1.807125e-17 -0.39945 -0.17812401
000200 0e e3 e6 3f 90 2b cb 3e 71 48 04 40 c6 31 d9 3f
       1.8038042 0.39681673 2.0669215 1.6968315
000210 4f 3a f9 3f ae a5 ad 3e 19 ce b9 3d 93 2f 05 3f
       1.9470919 0.33915466 0.09072513 0.5202572
000220 fd 37 bd 3e b7 62 06 40 9a a6 f3 3f 3a 10 31 3e
       0.36956778 2.099775 1.9035218 0.17291346
000230 d3 74 e5 3f 6b d3 a7 3e 2a 12 ee 3f 77 39 07 40
       1.7926277 0.32778487 1.8599293 2.1128824
000240 c0 ac 07 40 e2 ce 9f 3e b0 8c df 3f f2 ec 01 40
       2.1199188 0.31212527 1.746481 2.030087
000250 82 ef 08 40 cd a3 35 3e 66 c7 e0 3d 73 0e 8f 3e
       2.1396184 0.17738266 0.10975532 0.2794071
000260 dc 11 74 3e 7e 15 dd 3f 57 a5 04 40 9c 23 b0 3e
       0.23834938 1.7272184 2.0725915 0.34402168
000270 7b 63 ee 3f c7 1e 17 3e 8f 25 e9 3f dc 26 09 40
       1.8624109 0.14757834 1.8214587 2.1429968
000280 c4 92 54 be 21 d3 3f be e3 0d 50 be 2c 19 51 be
       -0.20759112 -0.18732883 -0.20317797 -0.20419759
000290 c0 76 d9 bd b2 3c f5 a2 ea 72 7e be f9 29 25 be
       -0.10618353 -6.6471647e-18 -0.24848524 -0.16129293
0002a0 16 a0 3b a3 d3 a8 44 be 2c db c6 be ff 1b 3a be
       -1.017119e-17 -0.19205026 -0.3883909 -0.18174742
0002b0 9d 36 85 be 9c 7d 1c 23 13 3f f0 bd 4d 89 89 bd
       -0.2601823 8.483376e-18 -0.117307805 -0.06715641
0002c0 1a df e5 be 1b e1 21 be e8 78 d3 be 36 7f 94 be
       -0.44896775 -0.15808527 -0.41303182 -0.29003304
0002d0 5f 58 bc bd 9e 20 7a be 1c 61 28 be bb bd a0 be
       -0.09196543 -0.24426505 -0.16443294 -0.31394753
0002e0 a7 5e 9c ba 15 57 b6 be c8 30 47 be 77 2c 55 be
       -0.0011930064 -0.35613313 -0.19452202 -0.20817743
0002f0 18 f9 a2 bd 67 97 5b be 07 81 e6 bd 7a d8 34 be
       -0.07957667 -0.21444474 -0.11255079 -0.17660704
000300 47 1a b7 bd 68 89 91 be 7a d5 79 be 70 15 73 bd
       -0.08940559 -0.28425145 -0.24397841 -0.059346616
000310 34 b2 e1 be 42 f9 ae be da 2a 71 bd fa 48 77 be
       -0.4408127 -0.34174544 -0.058878757 -0.24148932
000320 87 31 ea be e3 a0 60 be 5d 16 1e bf f6 68 e6 be
       -0.4574091 -0.21936373 -0.61752874 -0.45001954
000330 8b 22 56 be e8 21 de bd 14 e6 bc be 66 9e 1f be
       -0.20911615 -0.10846311 -0.36894286 -0.15587768
000340 07 c1 06 3c f0 91 37 bd 02 88 f0 be 67 8a a9 be
       0.008224732 -0.04481691 -0.46978766 -0.33113405
000350 94 b2 55 be 18 a2 17 bd 93 75 90 be 85 be 3f be
       -0.20868903 -0.03701982 -0.28214702 -0.18725021
000360 1f 7b db bd 65 e6 bd be df 51 c8 be f2 93 e4 3b
       -0.10716843 -0.3708984 -0.39124963 0.0069756443
000370 15 05 7b be 11 a9 81 bd 05 9e f5 be 26 b3 ab be
       -0.24513657 -0.06331075 -0.47972122 -0.33535117
000380 07 b1 84 bd 97 d9 85 be a9 bd 1f be 8a 34 e6 be
       -0.06479078 -0.2614257 -0.15599693 -0.4496196
000390 87 b5 37 3b 34 d5 ba be b2 75 81 be 68 ed cd be
       0.0028031783 -0.36490786 -0.25285107 -0.4022019
0003a0 fd 65 ae be 9b 9a e8 be a2 c5 ea be 60 48 94 be
       -0.34062186 -0.45430455 -0.45853907 -0.28961468
0003b0 5a eb b2 be 39 77 63 bd 4b d3 74 be b9 80 3b bd
       -0.34945184 -0.05553362 -0.23908727 -0.045777056
0003c0 11 78 ec 3f 45 b9 70 3e 58 75 0b 40 e8 b5 dc 3f
       1.8474141 0.23508175 2.179037 1.7243013
0003d0 a3 34 e5 3f 21 68 de 3e ce 15 53 3e 18 05 47 3e
       1.7906688 0.4343882 0.20613787 0.19435537
0003e0 b9 86 7a 3e 41 18 e3 3f 41 30 f8 3f ff 17 24 3e
       0.24465455 1.7741777 1.9389726 0.16024779
0003f0 56 ba 01 40 2c 46 c8 a1 d5 f3 eb 3f fc e8 ea 3f
       2.026998 -1.3571101e-18 1.8433787 1.8352351

layer_stack.4.bias f4 [16]
000000 27 79 33 be 33 10 4c be 94 1b c4 3f 54 d5 c8 3f
       -0.17526685 -0.19928055 1.5320916 1.5690103
000010 dc 15 bf 3f ac f8 fc bd 8c 2c fd 3f 61 4c e7 be
       1.4928546 -0.12352118 1.977922 -0.4517546
000020 e9 67 ed 3f 5a e4 ea 3f b3 65 a4 be fa b1 3e be
       1.8547336 1.8350937 -0.3210884 -0.1862258
000030 da 9d 0b be 2d be a3 3b d4 48 07 be e0 2c dd 3f
       -0.13634434 0.004997036 -0.13211375 1.727932

layer_stack.6.weight f4 [1, 16]
000000 c8 9f c8 3d 71 e8 78 3e fe d3 f2 3f 2c d4 ee 3f
       0.09796101 0.2430742 1.8970945 1.86585
000010 67 df f1 3f e5 2c 6a 3c ba ab f9 3f 11 ff 89 3e
       1.8896302 0.01429293 1.9505532 0.26952413
000020 25 54 f7 3f d5 37 09 40 db f7 75 3e 71 a8 49 3e
       1.9322554 2.1440327 0.2402033 0.19693162
000030 f0 41 8f 3e f4 c8 17 bc fe bf 60 3c 94 e6 00 40
       0.27979994 -0.00926422 0.0137176495 2.0140734
